__________________________________________________________________________________________________
Layer (type)                    Output Shape         Param #     Connected to                     
==================================================================================================
input_33 (InputLayer)           (None, 3982)         0                                            
__________________________________________________________________________________________________
embedding_50 (Embedding)        (None, 3982, 8)      2056        input_33[0][0]                   
__________________________________________________________________________________________________
conv1d_180 (Conv1D)             (None, 1991, 32)     544         embedding_50[0][0]               
__________________________________________________________________________________________________
conv1d_181 (Conv1D)             (None, 996, 32)      1056        embedding_50[0][0]               
__________________________________________________________________________________________________
conv1d_182 (Conv1D)             (None, 498, 32)      2080        embedding_50[0][0]               
__________________________________________________________________________________________________
conv1d_183 (Conv1D)             (None, 249, 32)      4128        embedding_50[0][0]               
__________________________________________________________________________________________________
conv1d_184 (Conv1D)             (None, 125, 32)      8224        embedding_50[0][0]               
__________________________________________________________________________________________________
max_pooling1d_103 (MaxPooling1D (None, 62, 32)       0           conv1d_180[0][0]                 
__________________________________________________________________________________________________
max_pooling1d_104 (MaxPooling1D (None, 62, 32)       0           conv1d_181[0][0]                 
__________________________________________________________________________________________________
max_pooling1d_105 (MaxPooling1D (None, 62, 32)       0           conv1d_182[0][0]                 
__________________________________________________________________________________________________
max_pooling1d_106 (MaxPooling1D (None, 62, 32)       0           conv1d_183[0][0]                 
__________________________________________________________________________________________________
max_pooling1d_107 (MaxPooling1D (None, 62, 32)       0           conv1d_184[0][0]                 
__________________________________________________________________________________________________
dropout_163 (Dropout)           (None, 62, 32)       0           max_pooling1d_103[0][0]          
__________________________________________________________________________________________________
dropout_164 (Dropout)           (None, 62, 32)       0           max_pooling1d_104[0][0]          
__________________________________________________________________________________________________
dropout_165 (Dropout)           (None, 62, 32)       0           max_pooling1d_105[0][0]          
__________________________________________________________________________________________________
dropout_166 (Dropout)           (None, 62, 32)       0           max_pooling1d_106[0][0]          
__________________________________________________________________________________________________
dropout_167 (Dropout)           (None, 62, 32)       0           max_pooling1d_107[0][0]          
__________________________________________________________________________________________________
concatenate_43 (Concatenate)    (None, 62, 160)      0           dropout_163[0][0]                
                                                                 dropout_164[0][0]                
                                                                 dropout_165[0][0]                
                                                                 dropout_166[0][0]                
                                                                 dropout_167[0][0]                
__________________________________________________________________________________________________
max_pooling1d_108 (MaxPooling1D (None, 62, 8)        0           embedding_50[0][0]               
__________________________________________________________________________________________________
concatenate_44 (Concatenate)    (None, 62, 168)      0           concatenate_43[0][0]             
                                                                 max_pooling1d_108[0][0]          
__________________________________________________________________________________________________
global_max_pooling1d_12 (Global (None, 168)          0           concatenate_44[0][0]             
__________________________________________________________________________________________________
dense_45 (Dense)                (None, 128)          21632       global_max_pooling1d_12[0][0]    
__________________________________________________________________________________________________
dropout_168 (Dropout)           (None, 128)          0           dense_45[0][0]                   
__________________________________________________________________________________________________
dense_46 (Dense)                (None, 1)            129         dropout_168[0][0]                
==================================================================================================
Total params: 39,849
Trainable params: 39,849
Non-trainable params: 0
__________________________________________________________________________________________________
None
Train on 90908 samples, validate on 22727 samples
Epoch 1/40
90908/90908 [==============================] - 28s 310us/step - loss: 0.2740 - acc: 0.8795 - val_loss: 0.1622 - val_acc: 0.9432
…
