Layer (type)                    Output Shape         Param #     Connected to                     
==================================================================================================
input_1 (InputLayer)            (None, 8192)         0                                            
__________________________________________________________________________________________________
embedding_1 (Embedding)         (None, 8192, 8)      2056        input_1[0][0]                    
__________________________________________________________________________________________________
conv1d_1 (Conv1D)               (None, 21, 32)       102432      embedding_1[0][0]                
__________________________________________________________________________________________________
conv1d_2 (Conv1D)               (None, 17, 32)       128032      embedding_1[0][0]                
__________________________________________________________________________________________________
conv1d_3 (Conv1D)               (None, 14, 32)       153632      embedding_1[0][0]                
__________________________________________________________________________________________________
dropout_1 (Dropout)             (None, 21, 32)       0           conv1d_1[0][0]                   
__________________________________________________________________________________________________
dropout_2 (Dropout)             (None, 17, 32)       0           conv1d_2[0][0]                   
__________________________________________________________________________________________________
dropout_3 (Dropout)             (None, 14, 32)       0           conv1d_3[0][0]                   
__________________________________________________________________________________________________
flatten_1 (Flatten)             (None, 672)          0           dropout_1[0][0]                  
__________________________________________________________________________________________________
flatten_2 (Flatten)             (None, 544)          0           dropout_2[0][0]                  
__________________________________________________________________________________________________
flatten_3 (Flatten)             (None, 448)          0           dropout_3[0][0]                  
__________________________________________________________________________________________________
concatenate_1 (Concatenate)     (None, 1664)         0           flatten_1[0][0]                  
                                                                 flatten_2[0][0]                  
                                                                 flatten_3[0][0]                  
__________________________________________________________________________________________________
dense_1 (Dense)                 (None, 128)          213120      concatenate_1[0][0]              
__________________________________________________________________________________________________
batch_normalization_1 (BatchNor (None, 128)          512         dense_1[0][0]                    
__________________________________________________________________________________________________
dense_2 (Dense)                 (None, 1)            129         batch_normalization_1[0][0]      
==================================================================================================
Total params: 599,913
Trainable params: 599,657
Non-trainable params: 256
__________________________________________________________________________________________________
None
WARNING:tensorflow:From c:\users\admin\anaconda3\envs\cs5242env\lib\site-packages\tensorflow\contrib\learn\python\learn\datasets\base.py:198: retry (from tensorflow.contrib.learn.python.learn.datasets.base) is deprecated and will be removed in a future version.
…
