__________________________________________________________________________________________________
Layer (type)                    Output Shape         Param #     Connected to                     
==================================================================================================
main_input (InputLayer)         (None, 3982)         0                                            
__________________________________________________________________________________________________
embedding_40 (Embedding)        (None, 3982, 8)      2056        main_input[0][0]                 
__________________________________________________________________________________________________
embedding_41 (Embedding)        (None, 3982, 8)      2056        main_input[0][0]                 
__________________________________________________________________________________________________
conv1d_144 (Conv1D)             (None, 63, 128)      65664       embedding_40[0][0]               
__________________________________________________________________________________________________
conv1d_145 (Conv1D)             (None, 63, 128)      65664       embedding_41[0][0]               
__________________________________________________________________________________________________
concatenate_33 (Concatenate)    (None, 63, 256)      0           conv1d_144[0][0]                 
                                                                 conv1d_145[0][0]                 
__________________________________________________________________________________________________
activation_6 (Activation)       (None, 63, 256)      0           concatenate_33[0][0]             
__________________________________________________________________________________________________
bidirectional_3 (Bidirectional) (None, 100)          122800      activation_6[0][0]               
__________________________________________________________________________________________________
dense_36 (Dense)                (None, 128)          12928       bidirectional_3[0][0]            
__________________________________________________________________________________________________
dropout_132 (Dropout)           (None, 128)          0           dense_36[0][0]                   
__________________________________________________________________________________________________
loss_out (Dense)                (None, 1)            129         dropout_132[0][0]                
==================================================================================================
Total params: 271,297
Trainable params: 271,297
Non-trainable params: 0
__________________________________________________________________________________________________
None
Train on 90908 samples, validate on 22727 samples
Epoch 1/40
90908/90908 [==============================] - 72s 795us/step - loss: 0.2286 - acc: 0.9039 - val_loss: 0.1266 - val_acc: 0.9514
…
