__________________________________________________________________________________________________
Layer (type)                    Output Shape         Param #     Connected to                     
==================================================================================================
main_input (InputLayer)         (None, 3982)         0                                            
__________________________________________________________________________________________________
embedding_44 (Embedding)        (None, 3982, 8)      2056        main_input[0][0]                 
__________________________________________________________________________________________________
conv1d_148 (Conv1D)             (None, 63, 128)      65664       embedding_44[0][0]               
__________________________________________________________________________________________________
conv1d_149 (Conv1D)             (None, 63, 128)      65664       embedding_44[0][0]               
__________________________________________________________________________________________________
concatenate_35 (Concatenate)    (None, 63, 256)      0           conv1d_148[0][0]                 
                                                                 conv1d_149[0][0]                 
__________________________________________________________________________________________________
activation_8 (Activation)       (None, 63, 256)      0           concatenate_35[0][0]             
__________________________________________________________________________________________________
global_max_pooling1d_8 (GlobalM (None, 256)          0           activation_8[0][0]               
__________________________________________________________________________________________________
dense_38 (Dense)                (None, 128)          32896       global_max_pooling1d_8[0][0]     
__________________________________________________________________________________________________
dropout_134 (Dropout)           (None, 128)          0           dense_38[0][0]                   
__________________________________________________________________________________________________
loss_out (Dense)                (None, 1)            129         dropout_134[0][0]                
==================================================================================================
Total params: 166,409
Trainable params: 166,409
Non-trainable params: 0
__________________________________________________________________________________________________
None
Train on 90908 samples, validate on 22727 samples
Epoch 1/40
90908/90908 [==============================] - 12s 131us/step - loss: 0.2064 - acc: 0.9102 - val_loss: 0.1249 - val_acc: 0.9520
…
