__________________________________________________________________________________________________
Layer (type)                    Output Shape         Param #     Connected to                     
==================================================================================================
main_input (InputLayer)         (None, 3982)         0                                            
__________________________________________________________________________________________________
embedding_4 (Embedding)         (None, 3982, 8)      2056        main_input[0][0]                 
__________________________________________________________________________________________________
conv1d_9 (Conv1D)               (None, 63, 128)      65664       embedding_4[0][0]                
__________________________________________________________________________________________________
conv1d_10 (Conv1D)              (None, 63, 128)      65664       embedding_4[0][0]                
__________________________________________________________________________________________________
concatenate_4 (Concatenate)     (None, 63, 256)      0           conv1d_9[0][0]                   
                                                                 conv1d_10[0][0]                  
__________________________________________________________________________________________________
activation_2 (Activation)       (None, 63, 256)      0           concatenate_4[0][0]              
__________________________________________________________________________________________________
global_max_pooling1d_2 (GlobalM (None, 256)          0           activation_2[0][0]               
__________________________________________________________________________________________________
dense_6 (Dense)                 (None, 128)          32896       global_max_pooling1d_2[0][0]     
__________________________________________________________________________________________________
dropout_10 (Dropout)            (None, 128)          0           dense_6[0][0]                    
__________________________________________________________________________________________________
loss_out (Dense)                (None, 1)            129         dropout_10[0][0]                 
==================================================================================================
Total params: 166,409
Trainable params: 166,409
Non-trainable params: 0
__________________________________________________________________________________________________
None
Train on 90908 samples, validate on 22727 samples
Epoch 1/40
90908/90908 [==============================] - 11s 122us/step - loss: 0.2008 - acc: 0.9144 - val_loss: 0.1153 - val_acc: 0.9570
…
