__________________________________________________________________________________________________
Layer (type)                    Output Shape         Param #     Connected to                     
==================================================================================================
input_27 (InputLayer)           (None, 3982)         0                                            
__________________________________________________________________________________________________
embedding_35 (Embedding)        (None, 3982, 8)      2056        input_27[0][0]                   
__________________________________________________________________________________________________
conv1d_137 (Conv1D)             (None, 10, 32)       102432      embedding_35[0][0]               
__________________________________________________________________________________________________
conv1d_138 (Conv1D)             (None, 8, 32)        128032      embedding_35[0][0]               
__________________________________________________________________________________________________
conv1d_139 (Conv1D)             (None, 7, 32)        153632      embedding_35[0][0]               
__________________________________________________________________________________________________
dropout_127 (Dropout)           (None, 10, 32)       0           conv1d_137[0][0]                 
__________________________________________________________________________________________________
dropout_128 (Dropout)           (None, 8, 32)        0           conv1d_138[0][0]                 
__________________________________________________________________________________________________
dropout_129 (Dropout)           (None, 7, 32)        0           conv1d_139[0][0]                 
__________________________________________________________________________________________________
flatten_25 (Flatten)            (None, 320)          0           dropout_127[0][0]                
__________________________________________________________________________________________________
flatten_26 (Flatten)            (None, 256)          0           dropout_128[0][0]                
__________________________________________________________________________________________________
flatten_27 (Flatten)            (None, 224)          0           dropout_129[0][0]                
__________________________________________________________________________________________________
concatenate_30 (Concatenate)    (None, 800)          0           flatten_25[0][0]                 
                                                                 flatten_26[0][0]                 
                                                                 flatten_27[0][0]                 
__________________________________________________________________________________________________
dense_32 (Dense)                (None, 128)          102528      concatenate_30[0][0]             
__________________________________________________________________________________________________
batch_normalization_13 (BatchNo (None, 128)          512         dense_32[0][0]                   
__________________________________________________________________________________________________
dropout_130 (Dropout)           (None, 128)          0           batch_normalization_13[0][0]     
__________________________________________________________________________________________________
dense_33 (Dense)                (None, 1)            129         dropout_130[0][0]                
==================================================================================================
Total params: 489,321
Trainable params: 489,065
Non-trainable params: 256
__________________________________________________________________________________________________
None
Train on 90908 samples, validate on 22727 samples
Epoch 1/40
90908/90908 [==============================] - 14s 154us/step - loss: 0.1939 - acc: 0.9194 - val_loss: 0.1106 - val_acc: 0.9596
…
