__________________________________________________________________________________________________
Layer (type)                    Output Shape         Param #     Connected to                     
==================================================================================================
input_10 (InputLayer)           (None, 8192)         0                                            
__________________________________________________________________________________________________
input_11 (InputLayer)           (None, 8192)         0                                            
__________________________________________________________________________________________________
input_12 (InputLayer)           (None, 8192)         0                                            
__________________________________________________________________________________________________
embedding_10 (Embedding)        (None, 8192, 8)      2056        input_10[0][0]                   
__________________________________________________________________________________________________
embedding_11 (Embedding)        (None, 8192, 8)      2056        input_11[0][0]                   
__________________________________________________________________________________________________
embedding_12 (Embedding)        (None, 8192, 8)      2056        input_12[0][0]                   
__________________________________________________________________________________________________
conv1d_10 (Conv1D)              (None, 21, 32)       102432      embedding_10[0][0]               
__________________________________________________________________________________________________
conv1d_11 (Conv1D)              (None, 17, 32)       128032      embedding_11[0][0]               
__________________________________________________________________________________________________
conv1d_12 (Conv1D)              (None, 14, 32)       153632      embedding_12[0][0]               
__________________________________________________________________________________________________
dropout_10 (Dropout)            (None, 21, 32)       0           conv1d_10[0][0]                  
__________________________________________________________________________________________________
dropout_11 (Dropout)            (None, 17, 32)       0           conv1d_11[0][0]                  
__________________________________________________________________________________________________
dropout_12 (Dropout)            (None, 14, 32)       0           conv1d_12[0][0]                  
__________________________________________________________________________________________________
flatten_10 (Flatten)            (None, 672)          0           dropout_10[0][0]                 
__________________________________________________________________________________________________
flatten_11 (Flatten)            (None, 544)          0           dropout_11[0][0]                 
__________________________________________________________________________________________________
flatten_12 (Flatten)            (None, 448)          0           dropout_12[0][0]                 
__________________________________________________________________________________________________
concatenate_4 (Concatenate)     (None, 1664)         0           flatten_10[0][0]                 
                                                                 flatten_11[0][0]                 
                                                                 flatten_12[0][0]                 
__________________________________________________________________________________________________
dense_7 (Dense)                 (None, 128)          213120      concatenate_4[0][0]              
__________________________________________________________________________________________________
batch_normalization_2 (BatchNor (None, 128)          512         dense_7[0][0]                    
__________________________________________________________________________________________________
dense_8 (Dense)                 (None, 1)            129         batch_normalization_2[0][0]      
==================================================================================================
Total params: 604,025
Trainable params: 603,769
Non-trainable params: 256
__________________________________________________________________________________________________
None
Train on 90908 samples, validate on 22728 samples
Epoch 1/40
90908/90908 [==============================] - 43s 474us/step - loss: 0.2070 - acc: 0.9113 - val_loss: 0.1059 - val_acc: 0.9617
…
