Layer (type)                    Output Shape         Param #     Connected to                     
==================================================================================================
input_4 (InputLayer)            (None, 8192)         0                                            
__________________________________________________________________________________________________
input_5 (InputLayer)            (None, 8192)         0                                            
__________________________________________________________________________________________________
input_6 (InputLayer)            (None, 8192)         0                                            
__________________________________________________________________________________________________
embedding_4 (Embedding)         (None, 8192, 8)      2056        input_4[0][0]                    
__________________________________________________________________________________________________
embedding_5 (Embedding)         (None, 8192, 8)      2056        input_5[0][0]                    
__________________________________________________________________________________________________
embedding_6 (Embedding)         (None, 8192, 8)      2056        input_6[0][0]                    
__________________________________________________________________________________________________
conv1d_4 (Conv1D)               (None, 21, 32)       102432      embedding_4[0][0]                
__________________________________________________________________________________________________
conv1d_5 (Conv1D)               (None, 17, 32)       128032      embedding_5[0][0]                
__________________________________________________________________________________________________
conv1d_6 (Conv1D)               (None, 14, 32)       153632      embedding_6[0][0]                
__________________________________________________________________________________________________
dropout_4 (Dropout)             (None, 21, 32)       0           conv1d_4[0][0]                   
__________________________________________________________________________________________________
dropout_5 (Dropout)             (None, 17, 32)       0           conv1d_5[0][0]                   
__________________________________________________________________________________________________
dropout_6 (Dropout)             (None, 14, 32)       0           conv1d_6[0][0]                   
__________________________________________________________________________________________________
flatten_4 (Flatten)             (None, 672)          0           dropout_4[0][0]                  
__________________________________________________________________________________________________
flatten_5 (Flatten)             (None, 544)          0           dropout_5[0][0]                  
__________________________________________________________________________________________________
flatten_6 (Flatten)             (None, 448)          0           dropout_6[0][0]                  
__________________________________________________________________________________________________
concatenate_2 (Concatenate)     (None, 1664)         0           flatten_4[0][0]                  
                                                                 flatten_5[0][0]                  
                                                                 flatten_6[0][0]                  
__________________________________________________________________________________________________
dense_3 (Dense)                 (None, 128)          213120      concatenate_2[0][0]              
__________________________________________________________________________________________________
dense_4 (Dense)                 (None, 1)            129         dense_3[0][0]                    
==================================================================================================
Total params: 603,513
Trainable params: 603,513
Non-trainable params: 0
__________________________________________________________________________________________________
None
Train on 90908 samples, validate on 22728 samples
Epoch 1/40
90908/90908 [==============================] - 45s 492us/step - loss: 0.2251 - acc: 0.9014 - val_loss: 0.1133 - val_acc: 0.9578
…
