__________________________________________________________________________________________________
Layer (type)                    Output Shape         Param #     Connected to                     
==================================================================================================
input_3 (InputLayer)            (None, 3982)         0                                            
__________________________________________________________________________________________________
embedding_5 (Embedding)         (None, 3982, 8)      2056        input_3[0][0]                    
__________________________________________________________________________________________________
conv1d_11 (Conv1D)              (None, 1991, 32)     544         embedding_5[0][0]                
__________________________________________________________________________________________________
conv1d_12 (Conv1D)              (None, 996, 32)      1056        embedding_5[0][0]                
__________________________________________________________________________________________________
conv1d_13 (Conv1D)              (None, 498, 32)      2080        embedding_5[0][0]                
__________________________________________________________________________________________________
conv1d_14 (Conv1D)              (None, 249, 32)      4128        embedding_5[0][0]                
__________________________________________________________________________________________________
conv1d_15 (Conv1D)              (None, 125, 32)      8224        embedding_5[0][0]                
__________________________________________________________________________________________________
max_pooling1d_1 (MaxPooling1D)  (None, 62, 32)       0           conv1d_11[0][0]                  
__________________________________________________________________________________________________
max_pooling1d_2 (MaxPooling1D)  (None, 62, 32)       0           conv1d_12[0][0]                  
__________________________________________________________________________________________________
max_pooling1d_3 (MaxPooling1D)  (None, 62, 32)       0           conv1d_13[0][0]                  
__________________________________________________________________________________________________
max_pooling1d_4 (MaxPooling1D)  (None, 62, 32)       0           conv1d_14[0][0]                  
__________________________________________________________________________________________________
max_pooling1d_5 (MaxPooling1D)  (None, 62, 32)       0           conv1d_15[0][0]                  
__________________________________________________________________________________________________
dropout_11 (Dropout)            (None, 62, 32)       0           max_pooling1d_1[0][0]            
__________________________________________________________________________________________________
dropout_12 (Dropout)            (None, 62, 32)       0           max_pooling1d_2[0][0]            
__________________________________________________________________________________________________
dropout_13 (Dropout)            (None, 62, 32)       0           max_pooling1d_3[0][0]            
__________________________________________________________________________________________________
dropout_14 (Dropout)            (None, 62, 32)       0           max_pooling1d_4[0][0]            
__________________________________________________________________________________________________
dropout_15 (Dropout)            (None, 62, 32)       0           max_pooling1d_5[0][0]            
__________________________________________________________________________________________________
concatenate_5 (Concatenate)     (None, 62, 160)      0           dropout_11[0][0]                 
                                                                 dropout_12[0][0]                 
                                                                 dropout_13[0][0]                 
                                                                 dropout_14[0][0]                 
                                                                 dropout_15[0][0]                 
__________________________________________________________________________________________________
max_pooling1d_6 (MaxPooling1D)  (None, 62, 8)        0           embedding_5[0][0]                
__________________________________________________________________________________________________
concatenate_6 (Concatenate)     (None, 62, 168)      0           concatenate_5[0][0]              
                                                                 max_pooling1d_6[0][0]            
__________________________________________________________________________________________________
global_max_pooling1d_3 (GlobalM (None, 168)          0           concatenate_6[0][0]              
__________________________________________________________________________________________________
dense_7 (Dense)                 (None, 128)          21632       global_max_pooling1d_3[0][0]     
__________________________________________________________________________________________________
dropout_16 (Dropout)            (None, 128)          0           dense_7[0][0]                    
__________________________________________________________________________________________________
dense_8 (Dense)                 (None, 1)            129         dropout_16[0][0]                 
==================================================================================================
Total params: 39,849
Trainable params: 39,849
Non-trainable params: 0
__________________________________________________________________________________________________
None
Train on 90908 samples, validate on 22727 samples
Epoch 1/40
90908/90908 [==============================] - 27s 300us/step - loss: 0.2721 - acc: 0.8820 - val_loss: 0.1698 - val_acc: 0.9436
…
