__________________________________________________________________________________________________
Layer (type)                    Output Shape         Param #     Connected to                     
==================================================================================================
input_2 (InputLayer)            (None, 3982)         0                                            
__________________________________________________________________________________________________
embedding_2 (Embedding)         (None, 3982, 8)      2056        input_2[0][0]                    
__________________________________________________________________________________________________
conv1d_4 (Conv1D)               (None, 10, 32)       102432      embedding_2[0][0]                
__________________________________________________________________________________________________
conv1d_5 (Conv1D)               (None, 8, 32)        128032      embedding_2[0][0]                
__________________________________________________________________________________________________
conv1d_6 (Conv1D)               (None, 7, 32)        153632      embedding_2[0][0]                
__________________________________________________________________________________________________
dropout_5 (Dropout)             (None, 10, 32)       0           conv1d_4[0][0]                   
__________________________________________________________________________________________________
dropout_6 (Dropout)             (None, 8, 32)        0           conv1d_5[0][0]                   
__________________________________________________________________________________________________
dropout_7 (Dropout)             (None, 7, 32)        0           conv1d_6[0][0]                   
__________________________________________________________________________________________________
flatten_4 (Flatten)             (None, 320)          0           dropout_5[0][0]                  
__________________________________________________________________________________________________
flatten_5 (Flatten)             (None, 256)          0           dropout_6[0][0]                  
__________________________________________________________________________________________________
flatten_6 (Flatten)             (None, 224)          0           dropout_7[0][0]                  
__________________________________________________________________________________________________
concatenate_2 (Concatenate)     (None, 800)          0           flatten_4[0][0]                  
                                                                 flatten_5[0][0]                  
                                                                 flatten_6[0][0]                  
__________________________________________________________________________________________________
dense_3 (Dense)                 (None, 128)          102528      concatenate_2[0][0]              
__________________________________________________________________________________________________
dropout_8 (Dropout)             (None, 128)          0           dense_3[0][0]                    
__________________________________________________________________________________________________
dense_4 (Dense)                 (None, 1)            129         dropout_8[0][0]                  
==================================================================================================
Total params: 488,809
Trainable params: 488,809
Non-trainable params: 0
__________________________________________________________________________________________________
None
Train on 90908 samples, validate on 22727 samples
Epoch 1/40
90908/90908 [==============================] - 13s 145us/step - loss: 0.2233 - acc: 0.9058 - val_loss: 0.1286 - val_acc: 0.9509
…
