__________________________________________________________________________________________________
Layer (type)                    Output Shape         Param #     Connected to                     
==================================================================================================
input_20 (InputLayer)           (None, 3982)         0                                            
__________________________________________________________________________________________________
embedding_20 (Embedding)        (None, 3982, 8)      2056        input_20[0][0]                   
__________________________________________________________________________________________________
conv1d_98 (Conv1D)              (None, 10, 32)       102432      embedding_20[0][0]               
__________________________________________________________________________________________________
conv1d_99 (Conv1D)              (None, 8, 32)        128032      embedding_20[0][0]               
__________________________________________________________________________________________________
conv1d_100 (Conv1D)             (None, 7, 32)        153632      embedding_20[0][0]               
__________________________________________________________________________________________________
dropout_95 (Dropout)            (None, 10, 32)       0           conv1d_98[0][0]                  
__________________________________________________________________________________________________
dropout_96 (Dropout)            (None, 8, 32)        0           conv1d_99[0][0]                  
__________________________________________________________________________________________________
dropout_97 (Dropout)            (None, 7, 32)        0           conv1d_100[0][0]                 
__________________________________________________________________________________________________
flatten_13 (Flatten)            (None, 320)          0           dropout_95[0][0]                 
__________________________________________________________________________________________________
flatten_14 (Flatten)            (None, 256)          0           dropout_96[0][0]                 
__________________________________________________________________________________________________
flatten_15 (Flatten)            (None, 224)          0           dropout_97[0][0]                 
__________________________________________________________________________________________________
concatenate_20 (Concatenate)    (None, 800)          0           flatten_13[0][0]                 
                                                                 flatten_14[0][0]                 
                                                                 flatten_15[0][0]                 
__________________________________________________________________________________________________
dense_18 (Dense)                (None, 128)          102528      concatenate_20[0][0]             
__________________________________________________________________________________________________
batch_normalization_10 (BatchNo (None, 128)          512         dense_18[0][0]                   
__________________________________________________________________________________________________
dense_19 (Dense)                (None, 1)            129         batch_normalization_10[0][0]     
==================================================================================================
Total params: 489,321
Trainable params: 489,065
Non-trainable params: 256
__________________________________________________________________________________________________
None
Train on 90908 samples, validate on 22727 samples
Epoch 1/40
90908/90908 [==============================] - 14s 152us/step - loss: 0.1987 - acc: 0.9170 - val_loss: 0.1249 - val_acc: 0.9519
…
